…
data shape: (1989, 27)
list shape: (1989, 25)
Found 30462 unique tokens.
Pad sequences (samples x time)
X_train shape: (1611, 200)
X_test shape: (378, 200)
Preparing embedding matrix.
(10001, 50)
Build model...
glove_cnn.py:148: UserWarning: Update your `Conv1D` call to the Keras 2 API: `Conv1D(activation="relu", filters=120, kernel_size=2, strides=1, padding="valid")`
  subsample_length=1))
_________________________________________________________________
Layer (type)                 Output Shape              Param #
=================================================================
embedding_1 (Embedding)      (None, 200, 50)           500050
_________________________________________________________________
conv1d_1 (Conv1D)            (None, 199, 120)          12120
_________________________________________________________________
lambda_1 (Lambda)            (None, 120)               0
_________________________________________________________________
dense_1 (Dense)              (None, 120)               14520
_________________________________________________________________
dropout_1 (Dropout)          (None, 120)               0
_________________________________________________________________
activation_1 (Activation)    (None, 120)               0
_________________________________________________________________
dense_2 (Dense)              (None, 2)                 242
_________________________________________________________________
activation_2 (Activation)    (None, 2)                 0
=================================================================
Total params: 526,932
Trainable params: 26,882
Non-trainable params: 500,050
_________________________________________________________________
Train...
Train on 1611 samples, validate on 378 samples
Epoch 1/15
1611/1611 [==============================] - 4s - loss: 0.7548 - acc: 0.4978 - val_loss: 0.7059 - val_acc: 0.5146
Epoch 2/15
…
